ppo.model (torch, 959437 bytes, 54 tensors)

weight f4 [53, 64]
0	0x3ae1ff56	0.0017242234
1	0x3caa1688	0.020762697
2	0x3cc9d4aa	0.024637539
3	0x3d117d65	0.035519976
4	0xbccabca1	-0.024748148
5	0x3c57d90a	0.013174305
6	0x3cd92106	0.026505005
7	0xbcbc6409	-0.02299692
8	0x3c08c740	0.008348286
9	0xbbc1a0d0	-0.005909063
10	0xbc2b03bc	-0.010437902
11	0x3c929a4b	0.017895838
12	0xbcf6e048	-0.030136243
13	0x3bd1ef75	0.0064067193
14	0xbb0cc75a	-0.0021481127
15	0xbba2b76b	-0.004965713
16	0xbb91c179	-0.0044481126
17	0xbbc3c4c2	-0.005974383
18	0xbc844e1d	-0.016150529
19	0xbd7bd122	-0.06147874
20	0xbd813d25	-0.063104905
21	0x3bb4ea84	0.0055211205
22	0xbb36a13e	-0.0027867104
23	0x3cd0503c	0.025428884
24	0x3c568ab4	0.013094593
25	0x3d1007b5	0.0351636
26	0xbc8bebce	-0.017080214
27	0xbb43b7f0	-0.0029864274
28	0x3ca429ac	0.020039402
29	0xbd832278	-0.06403059
30	0x3bdf29ea	0.0068104165
31	0x3cab1960	0.020886123
32	0x3cee7201	0.029107096
33	0x3cb7c9fa	0.022435177
34	0xbcc2e58c	-0.023791097
35	0xbcf19f10	-0.029494792
36	0x3c9ea10d	0.019363904
37	0xba69a810	-0.0008913288
38	0x3ac1ce50	0.0014786217
39	0x3ce00bc3	0.027349358
40	0xbbfb21c0	-0.0076639354
41	0xbc8b09c6	-0.016972434
42	0xbbf085d1	-0.007340171
43	0xbb803b30	-0.0039133057
44	0x3c056892	0.008142607
45	0xba404e1f	-0.00073358597
46	0xbcfeba14	-0.031094588
47	0x3d0db2dd	0.034594405
48	0xbcc67e74	-0.02423022
49	0x3c856a9c	0.016286187
50	0x3c82dfd1	0.015975865
51	0x3b979edb	0.0046270913
52	0x3c72569b	0.014791156
53	0x39af24b4	0.00033405947
54	0xbcbc0a98	-0.02295427
55	0xbc0ced99	-0.00860157
56	0x3d170596	0.03687056
57	0x3d18e6dd	0.037329543
58	0xbbbf7074	-0.005842263
59	0x3b986ab8	0.0046513937
60	0xbc2175d1	-0.00985475
61	0xbc3b99fc	-0.011450287
62	0xbc28b6ac	-0.010297459
63	0x3d1d94e3	0.038472068
64	0x3ce26a8a	0.027638692
65	0xbc0adabd	-0.008475003
66	0x3d8896a6	0.06669359
67	0xbb1478fb	-0.0022655118
68	0x3c990516	0.018679183
69	0x3d1cf92d	0.03832357
70	0x3d51c377	0.0512118
71	0xbc00700a	-0.007839212
72	0x3af419f2	0.0018623455
73	0x3cff2755	0.031146685
74	0x3bb07abb	0.0053857244
75	0xbcaa3406	-0.02077676
76	0xbbc0a698	-0.0058792345
77	0x3cec6679	0.028857457
78	0xbbc73c6e	-0.006080202
79	0xbc92dfb1	-0.01792893
80	0xbd12311c	-0.035691366
81	0x3a3e7351	0.0007265108
82	0xbcb3fc10	-0.021970779
83	0xbdc82e8b	-0.09774502
84	0xbc9642b8	-0.01834236
85	0x3c315bd8	0.01082512
86	0xbc3062e2	-0.010765763
87	0x3d076571	0.033055726
88	0xbcfc439a	-0.030793954
89	0xbccf04ae	-0.025270786
90	0x3d0e7f90	0.03478962
91	0xbaba593c	-0.0014217268
92	0xbb8235f0	-0.003973715
93	0xbc979bd3	-0.01850692
94	0xbd20c4e1	-0.03925026
95	0xbb7310a1	-0.003708877
96	0xbb5f8d4f	-0.0034111326
97	0x3cd20699	0.025637912
98	0xbc0e75cb	-0.008695076
99	0xbc991e8c	-0.018691324
100	0x3c098808	0.008394249
101	0xbd9ddc41	-0.07708026
102	0x3cd2f5d7	0.025751991
103	0x3a8acdb9	0.0010589875
104	0x3d73d539	0.059529517
105	0xbd6057c8	-0.054771215
106	0xbc4325fd	-0.011910913
107	0xbd716353	-0.058932614
108	0x3b0b2001	0.0021228793
109	0x3c5e5f04	0.013572458
110	0x3a84acdc	0.0010122317
111	0x3d2c883b	0.042122107
112	0x3b4200bc	0.0029602489
113	0x3c271d25	0.01019982
114	0x3c0c081d	0.008546856
115	0xbceb83eb	-0.028749427
116	0x3ce8f85f	0.028438745
117	0x3c4cd66d	0.012502295
118	0xbc011c81	-0.007880331
119	0xbb433778	-0.00297877
120	0x3b0b5e81	0.0021266046
121	0x3affef88	0.0019526342
122	0xbc170a83	-0.009218815
123	0xbcd9866a	-0.026553351
124	0xbbf0cee4	-0.007348882
125	0xbccea537	-0.025225265
126	0x3cbc2437	0.022966487
127	0x3d21c103	0.03949071
128	0xbbb9468b	-0.0056541613
129	0x3bc7114c	0.00607506
130	0x3d1e96fe	0.038718216
131	0xbcb6f49e	-0.02233344
132	0x3cfc4349	0.030793803
133	0xbca03752	-0.019557629
134	0xbd233910	-0.03984934
135	0xbc146953	-0.009058314
136	0x3d1f8958	0.03894934
137	0xbc9db7d4	-0.019252695
138	0xba755312	-0.0009358387
139	0x3bc8d54a	0.0061289417
140	0x3bd86eb6	0.0066049946
141	0x3d175f89	0.036956344
142	0x3be2417c	0.006904779
143	0x3c800d0a	0.015631218
144	0xbb97779b	-0.0046224124
145	0x3ca6d445	0.02036489
146	0x3cdd13eb	0.026987037
147	0xbca83d66	-0.02053709
148	0xbd26e427	-0.040744927
149	0xbc02930c	-0.007969629
150	0xbcad04c4	-0.021120436
151	0x3b21d8a6	0.0024695783
152	0x3bb16a90	0.0054143146
153	0xbd0189d9	-0.031625602
154	0xbb70a2bb	-0.0036718089
155	0xbbbe001a	-0.005798352
156	0xbc525790	-0.012838259
157	0xbd41d76f	-0.047324594
158	0x3d485c00	0.048915863
159	0x3cc010da	0.023445535
160	0x3bc69357	0.0060600447
161	0xbccf81df	-0.025330482
162	0x3a9558fd	0.0011394318
163	0x3ca6ab18	0.020345256
164	0x3b3bdc25	0.0028665152
165	0x3c31992d	0.010839743
166	0xbc6f482c	-0.014604609
167	0xbd040f68	-0.032241255
168	0xbb0e4274	-0.002170709
169	0x3cb8f101	0.022575857
170	0x3beb8114	0.007187018
171	0xbd12c7d3	-0.0358351
172	0xbc88f76c	-0.016719542
173	0x3c07d0d1	0.008289532
174	0xba8f4390	-0.0010930169
175	0x3c44ae98	0.012004517
176	0x3c7d2d0b	0.015452634
177	0x3c194a9d	0.009356168
178	0xbc9353bd	-0.017984265
179	0xbc16d684	-0.009206418
180	0xbcc3a24f	-0.023881106
181	0xbc2eb9b6	-0.010664394
182	0x3c19e43b	0.009392793
183	0x3c6dbda6	0.014510548
184	0x3ba7ea7e	0.005124389
185	0x3c9def66	0.019279193
186	0x3d58fb83	0.052974235
187	0x3c03a0ad	0.008033914
188	0x3d0640f8	0.032776803
189	0x3d1bf416	0.038074575
190	0x3c84130e	0.016122367
191	0x3ce05371	0.027383538
192	0x3d0bae6e	0.034101896
193	0xbd120750	-0.035651505
194	0xbd01c9ba	-0.031686522
195	0x3cef1408	0.029184356
196	0x3bc6dfea	0.006069173
197	0x39371f2e	0.00017463855
198	0x3cfbbe63	0.030730432
199	0x3c0f5250	0.008747652
200	0xbc70f74e	-0.0147073995
201	0x3cd5247d	0.026018376
202	0xbce42702	-0.027850632
203	0xbc3468d0	-0.011011317
204	0x3c618b44	0.013766114
205	0xba752b30	-0.0009352444
206	0xb9c96073	-0.00038409568
207	0xbcd7a657	-0.026324434
208	0x3c5b4aa7	0.013384498
209	0xbae9cbaa	-0.0017837186
210	0xbc477288	-0.0121733025
211	0x3b8c1fe7	0.004276264
212	0x3c97ae05	0.018515596
213	0x3c48ae9a	0.0122486595
214	0x3bcd6b99	0.00626893
215	0x3c8227d2	0.015888128
216	0xbd0b549d	-0.03401624
217	0x3d07b34f	0.033129986
218	0xbc0e2f21	-0.008678229
219	0xbbb76904	-0.0055972356
220	0xbb835748	-0.0040082075
221	0xbaf2314a	-0.0018477824
222	0x3b51fbca	0.0032040947
223	0xbc04adb8	-0.008098058
224	0xbc3cd4b8	-0.0115253255
225	0xbcf1ce67	-0.029517366
226	0x3c9e506f	0.019325463
227	0x3c757169	0.014980652
228	0xbc04cbb8	-0.008105211
229	0x3cc005f4	0.023440339
230	0x3ca503f1	0.020143481
231	0x3be7fddd	0.0070798234
232	0xbbdf2c43	-0.0068106963
233	0x3cd40f75	0.025886277
234	0x3d0114eb	0.03151409
235	0x3c914863	0.017734712
236	0x3ac4e393	0.0015021436
237	0xbbc11eed	-0.005893579
238	0x3d433ae4	0.047663584
239	0x3ca412f9	0.020028578
240	0xbcbab385	-0.02279068
241	0x3c8bfe71	0.0170891
242	0xbb02c689	-0.0019954762
243	0x3d2748c9	0.040840898
244	0x3d06e6b6	0.032934867
245	0xbc83069a	-0.015994359
246	0x3ca8ff28	0.02062948
247	0x3d1b3d92	0.037900515
248	0x3b9d45f5	0.0047995993
249	0x3c08cd7e	0.008349774
250	0xbcc326ee	-0.023822274
251	0xbd281361	-0.041034106
252	0xbc287da6	-0.010283863
253	0x3c5ce6a3	0.013482722
254	0x3ce1fa47	0.027585162
255	0xbc9c0dc2	-0.019049529

weight f4 [128, 64]
0	0x3d1a2be2	0.037639506
1	0x3cce3d02	0.025175575
2	0x3db110a5	0.08645753
3	0xbbbc75e1	-0.005751357
4	0xbc2e9012	-0.010654466
5	0x3ccdc683	0.025119072
6	0x3d357469	0.04430047
7	0xbd089336	-0.033343516
8	0x3c1227c1	0.008920611
9	0x3c7f280c	0.015573513
10	0xbb6060b6	-0.0034237332
11	0x3d8f5059	0.06997747
12	0x3c3017d4	0.010747869
13	0x3ce34952	0.027744923
14	0xbc5f757f	-0.013638853
15	0x3cd69893	0.0261958
16	0xbbc4b031	-0.006002449
17	0xbc4948c6	-0.012285417
18	0x3ce19f16	0.027541678
19	0xbdf311d5	-0.118686356
20	0x3ccf7230	0.025323004
21	0xbc4e6159	-0.012596452
22	0x3b0b3fe8	0.0021247808
23	0xbbda181a	-0.006655705
24	0xbd447837	-0.04796621
25	0x3cece8dc	0.02891963
26	0x3cb33565	0.021876046
27	0xbd12e974	-0.03586717
28	0x3ba0cdd8	0.004907351
29	0x3c9362b0	0.017991394
30	0x3cb71703	0.02234984
31	0xbc37757d	-0.011197445
32	0xbc9b4cc7	-0.018957509
33	0xbb0f7778	-0.0021891277
34	0x3cb76b51	0.02239004
35	0xbc7ab38d	-0.015301597
36	0xbd00bc99	-0.03142986
37	0xbcea0436	-0.028566461
38	0x3c9765a2	0.01848108
39	0xbbbd3ecd	-0.0057753087
40	0x3a082af1	0.0005194387
41	0xbc0cb620	-0.008588344
42	0xbc420206	-0.011841303
43	0xbbe3eac0	-0.0069554746
44	0x3d1046b7	0.03522369
45	0xbbaff42b	-0.0053696833
46	0xbc651886	-0.013982898
47	0xbc356170	-0.011070594
48	0x3d318160	0.043336272
49	0xbcdfc432	-0.027315233
50	0xbc279e41	-0.010230602
51	0xbda1642e	-0.07880436
52	0x3c87b190	0.01656416
53	0x3c19906a	0.00937281
54	0xb9951d58	-0.00028441357
55	0x3b27f160	0.0025626048
56	0xbb3dd3fd	-0.0028965466
57	0x3ac80dec	0.0015262938
58	0x3ab4f360	0.0013805442
59	0x3cf67254	0.030083813
60	0x3c0f453e	0.008744536
61	0x3bf0d463	0.007349537
62	0x3bafeb0f	0.0053685973
63	0x3af59eeb	0.0018739378
64	0xbb488682	-0.003059775
65	0x3c0f89c9	0.008760878
66	0x3d881329	0.066442795
67	0xbcd2be25	-0.025725434
68	0x3acee209	0.0015783916
69	0x3cbef8c1	0.023311974
70	0x3d3e58b0	0.046471298
71	0xbcb73fb9	-0.022369253
72	0x3c887fac	0.016662441
73	0x3c19677e	0.009363053
74	0x3bb5ca3c	0.00554779
75	0x3c7edc55	0.015555461
76	0xbbc9d3a8	-0.0061592646
77	0x3d145e1c	0.036222562
78	0xbbf2d96c	-0.0074111726
79	0x3c841f3c	0.016128175
80	0xbb0fbf52	-0.0021934104
81	0xbd2121ee	-0.039339
82	0xbb84ff01	-0.004058719
83	0xbdff4da5	-0.124659814
84	0xbd65136b	-0.05592672
85	0xbc0da087	-0.00864423
86	0xbccaf482	-0.024774794
87	0x3d8e426d	0.069462635
88	0xbce2ca38	-0.027684316
89	0xbb9858c4	-0.0046492536
90	0x3cf250e3	0.029579585
91	0xbc063156	-0.008190474
92	0xbc2edc52	-0.010672646
93	0xbc0e5f08	-0.008689649
94	0xbc0cc79b	-0.0085925115
95	0x39f5a6b3	0.00046854242
96	0xbc5f3dff	-0.013625621
97	0x3c5dbc4b	0.013533662
98	0xbb25bb3c	-0.0025288602
99	0xbc985cba	-0.018598903
100	0xbccab9fa	-0.024746884
101	0xbd10f0cb	-0.035385888
102	0x3c6dc8cc	0.014513206
103	0x3b12b46c	0.0022385372
104	0x3cf1fea7	0.029540373
105	0xbbaa987e	-0.0052061668
106	0xba5a3315	-0.0008323652
107	0xbd123637	-0.035696235
108	0x3d46cc30	0.048534572
109	0x3c8269a7	0.01591952
110	0xbb44303d	-0.0029935979
111	0x3c800342	0.015626553
112	0x3b9b3856	0.0047369404
113	0x3915bd93	0.00014280369
114	0xbcc5176d	-0.024059022
115	0xbcb51ee2	-0.022109453
116	0x3cd1e7f0	0.025623292
117	0x3d008ea6	0.03138604
118	0xbce93d15	-0.028471509
119	0xbc205ef8	-0.009788267
120	0x3a2db8c9	0.00066269614
121	0x3c91c59b	0.017794421
122	0xbbd7ec76	-0.0065894676
123	0x3c2a9251	0.010410861
124	0xbaad5353	-0.0013223685
125	0xbce5c190	-0.0280464
126	0xbbf2c28b	-0.0074084452
127	0x3ca68d3d	0.02033102
128	0xbd9cd6d2	-0.07658161
129	0xbd8f94ea	-0.07010825
130	0xbd0d185a	-0.03444705
131	0x3d23565c	0.03987728
132	0x3cd6cdb8	0.026221141
133	0x3da0bf60	0.07849002
134	0xbcfc5248	-0.030800954
135	0xbcb2af55	-0.02181212
136	0xbd6b764f	-0.057485875
137	0x3b77639d	0.0037748583
138	0x3c679507	0.014134652
139	0x39c0ddcf	0.00036786354
140	0xbcbbd515	-0.022928754
141	0xb8052451	-3.1743493e-05
142	0xbd974d44	-0.07387784
143	0x3a6c51ea	0.00090148917
144	0xbce11a55	-0.027478376
145	0xbc8d41c3	-0.017243272
146	0x3d0dd402	0.034626015
147	0xbce13af6	-0.027493935
148	0x3d5eacc4	0.05436398
149	0xbb7f2830	-0.0038933866
150	0x3caef8f3	0.021358943
151	0x3d2391bb	0.0399339
152	0x3b27dced	0.002561386
153	0x3b45bdfa	0.003017305
154	0x3cbde8e8	0.023182347
155	0x3d2569a4	0.04038395
156	0xbd03850f	-0.032109316
157	0xbc0d56b1	-0.008626626
158	0x3cd1fd11	0.025633367
159	0xbc9d08d4	-0.019169249
160	0x3c618e9d	0.013766912
161	0xbc1dba0d	-0.0096268775
162	0xbadc1066	-0.0016789555
163	0x3c896150	0.016770035
164	0xbd328159	-0.043580387
165	0x3c1bde4d	0.00951345
166	0x3d81580d	0.063156225
167	0x3c816ff1	0.015800448
168	0x3d2a72f3	0.04161353
169	0x3d40e265	0.047090907
170	0xbda1c374	-0.07898608
171	0x3c87862f	0.016543476
172	0xbca490e3	-0.020088619
173	0x3ceff77c	0.029292814
174	0x3cbb41b2	0.022858474
175	0x3c189120	0.009311944
176	0xbd7d8538	-0.061894625
177	0xbaae53af	-0.0013300086
178	0x3bc308d9	0.0059519825
179	0x3c84b680	0.016200304
180	0xbc9d1569	-0.019175248
181	0x3c06f128	0.008236207
182	0x3d2e7ba2	0.042598374
183	0xbc9b5886	-0.01896311
184	0xbc950d4b	-0.018194815
185	0x3b820957	0.0039683986
186	0xbc9f2360	-0.019426048
187	0x3cfe02f9	0.031007277
188	0xbc440b2f	-0.011965557
189	0xbc93b90e	-0.018032577
190	0xbc4536e4	-0.012037013
191	0xbcc7ed13	-0.024405038
192	0xbc42dddb	-0.011893715
193	0xbbfb1c98	-0.0076633207
194	0x3d671dc3	0.056424867
195	0x3c8b8bf1	0.017034503
196	0x3cc5625e	0.024094757
197	0x3d1a22fa	0.037631012
198	0x38df34a1	0.000106432715
199	0xbc1653a4	-0.009175215
200	0xbd12c18b	-0.03582911
201	0xbd306afc	-0.04307078
202	0x3d1839f5	0.037164647
203	0x3b14eb9f	0.002272345
204	0x3d311c91	0.043240134
205	0x3c2dbe11	0.010604397
206	0x3ba95095	0.005167077
207	0xbd1191a5	-0.035539288
208	0x3c801cf1	0.0156388
209	0xbbb62482	-0.0055585513
210	0x3b179321	0.0023128467
211	0x3d8cccf7	0.068750314
212	0x3c82d07b	0.015968552
213	0xbbbeb9ad	-0.005820474
214	0x3c20075d	0.009767381
215	0x3d418751	0.04724819
216	0x3d59c6a7	0.053167965
217	0x3dbcd4fc	0.09220311
218	0xbd5dd28e	-0.05415588
219	0xbbdedfb6	-0.0068015708
220	0xbd91b81c	-0.07115194
221	0xbba64c2d	-0.005074999
222	0xbd5ae4ea	-0.053440966
223	0x39c66a49	0.00037844692
224	0x3cec6708	0.028857723
225	0xbd135afa	-0.035975434
226	0xbcbdde6f	-0.023177354
227	0xbcead968	-0.02866812
228	0x3bd409ea	0.0064709084
229	0xbce063b7	-0.027391298
230	0x3d313b1c	0.04326926
231	0x3b79bcf0	0.0038107
232	0x3c335e79	0.010947817
233	0x3c93b3e3	0.018030113
234	0xbc38452f	-0.011246963
235	0xbb6c605d	-0.003606818
236	0xbd379230	-0.04481715
237	0x3c8a0ec2	0.01685274
238	0x3c8a75f2	0.016901944
239	0xbd9515b4	-0.0727953
240	0xbc490557	-0.0122693395
241	0xbd0d04ed	-0.034428526
242	0x3d718598	0.058965296
243	0x3d14f6c1	0.036368135
244	0xbd934e14	-0.071926266
245	0x3c8b9f9d	0.017043883
246	0xbc8b5c35	-0.017011741
247	0x3d3b4bc7	0.045726564
248	0x3c81d268	0.0158474
249	0xbcbe00c2	-0.02319372
250	0xbdb80ccd	-0.089868166
251	0x3b54b8f5	0.0032458876
252	0xbbca3e60	-0.0061719865
253	0x3b85e737	0.004086401
254	0xbcf53837	-0.029934032
255	0xbb7bbf39	-0.0038413538

weight f4 [64]
0	0x3f8b1fec	1.0869117
1	0x3f8a6c9f	1.0814399
2	0x3f8b8540	1.090004
3	0x3f8c4010	1.095705
4	0x3f885ad7	1.0652722
5	0x3f8dd5a8	1.1080828
6	0x3f8af52a	1.0856068
7	0x3f8d81b0	1.1055202
8	0x3f8a9983	1.0828098
9	0x3f8707fc	1.0549312
10	0x3f89eef8	1.0776052
11	0x3f827cdd	1.0194355
12	0x3f937842	1.1521075
13	0x3f8cd712	1.1003134
14	0x3f8f16df	1.1178855
15	0x3f87e79d	1.0617558
16	0x3f879051	1.0590917
17	0x3f845e73	1.0341324
18	0x3f8e1764	1.1100888
19	0x3f7c7862	0.9862119
20	0x3f87f22a	1.0620778
21	0x3f863f2e	1.0488031
22	0x3f8c1902	1.0945132
23	0x3f89a489	1.0753337
24	0x3f86e8e1	1.0539819
25	0x3f85d08d	1.045427
26	0x3f874545	1.0568014
27	0x3f87ce62	1.0609858
28	0x3f8bf7d7	1.093501
29	0x3f85ea30	1.0462093
30	0x3f88406d	1.0644661
31	0x3f8352e3	1.025967
32	0x3f8beca0	1.0931587
33	0x3f87dcd9	1.0614272
34	0x3f891a46	1.0711143
35	0x3f888e6e	1.0668466
36	0x3f891e35	1.0712343
37	0x3f83691e	1.0266454
38	0x3f84c9c6	1.0374076
39	0x3f91c178	1.1387167
40	0x3f87b8b8	1.0603247
41	0x3f8cbfe1	1.0996057
42	0x3f8d7464	1.1051145
43	0x3f8dbc9d	1.1073185
44	0x3f8c8737	1.0978764
45	0x3f884287	1.0645303
46	0x3f873e24	1.0565839
47	0x3f832a63	1.024731
48	0x3f8dabef	1.1068095
49	0x3f89e235	1.0772158
50	0x3f8af2a6	1.08553
51	0x3f82a7af	1.0207423
52	0x3f82fdb0	1.0233669
53	0x3f895db4	1.0731721
54	0x3f8569de	1.0422933
55	0x3f8acae6	1.084317
56	0x3f8cc571	1.0997754
57	0x3f8c4801	1.0959474
58	0x3f89c9a7	1.0764664
59	0x3f885f33	1.0654052
60	0x3f8aa185	1.0830542
61	0x3f90402d	1.1269585
62	0x3f83f022	1.0307658
63	0x3f89e76b	1.0773748

bias f4 [64]
0	0x3c261b79	0.010138386
1	0x3c67cca4	0.014147911
2	0xbc6107fe	-0.013734816
3	0x3b65df83	0.003507585
4	0xbc0770d7	-0.008266649
5	0xbd695e37	-0.056974616
6	0xbc67e9a2	-0.0141548235
7	0xbb7a7c1c	-0.0038220948
8	0xbc52a33c	-0.012856301
9	0xbb934e21	-0.0044953977
10	0xbbccfcea	-0.0062557356
11	0x3ce7f49f	0.028314887
12	0xbcf27ae0	-0.029599607
13	0x3c01e594	0.007928271
14	0x3d22be9a	0.039732553
15	0x3ad8eeea	0.0016550694
16	0xbbdccd89	-0.006738369
17	0x3cb43acd	0.022000695
18	0xbc9c66d7	-0.019092007
19	0x3d540d15	0.05177029
20	0x3b213528	0.0024598334
21	0xbd5cd9dd	-0.053918708
22	0xbd2c3996	-0.042047106
23	0xbc44a2d3	-0.012001711
24	0x3ca4e96f	0.020130841
25	0x3a98ee0b	0.0011667622
26	0xbc0b6f42	-0.008510413
27	0x3c853e1e	0.016264971
28	0x3c382531	0.011239336
29	0x3b4967db	0.0030732069
30	0xbc4c0bd7	-0.012453995
31	0xbb12645c	-0.002233765
32	0xbb3e4b98	-0.0029036757
33	0xbbcd4448	-0.0062642433
34	0x3ba6e8aa	0.0050936537
35	0xbc8b73be	-0.017022964
36	0xbc9b75fc	-0.018977158
37	0x3cb439b5	0.022000173
38	0x3b9af438	0.00472882
39	0xbcaf12ea	-0.021371324
40	0x3a4082fa	0.0007343736
41	0xbca33104	-0.019920833
42	0x3cdbb2ce	0.02681866
43	0x3ca69efc	0.020339482
44	0x3b28d906	0.0025764122
45	0x3b9a376d	0.0047063143
46	0xbc8d119f	-0.017220316
47	0xbcd0e151	-0.025498064
48	0x3d358553	0.0443166
49	0x3c6abf1c	0.014327791
50	0x3ba59433	0.005053067
51	0x3d1c3887	0.038139846
52	0xbbfb487a	-0.007668552
53	0x3c8b83d7	0.01703064
54	0x3b239c31	0.0024964924
55	0xbb27e018	-0.0025615748
56	0x3a48697d	0.00076451135
57	0x3cb594be	0.022165652
58	0x3d209690	0.039206088
59	0x3d2c2cae	0.042034797
60	0xbbc8126d	-0.006105712
61	0x3bc5e941	0.006039769
62	0x3c7b78c5	0.015348618
63	0xbbf27d20	-0.00740017

weight f4 [64, 192]
0	0x3dc96c1d	0.09835074
1	0x3dca02dd	0.098638274
2	0xbd01abaf	-0.03165787
3	0xbd24c7e1	-0.040229682
4	0xbc3598ec	-0.011083823
5	0xbd80988d	-0.06279097
6	0xbdcb4a84	-0.09926322
7	0xbd591063	-0.052994143
8	0x3df90abe	0.12160252
9	0xbb9a1560	-0.004702255
10	0x3d299100	0.04139805
11	0x3dd913aa	0.10599454
12	0x3dfb6277	0.1227464
13	0x3d6a2035	0.05715962
14	0x3d75d4c7	0.060017373
15	0x3b4f24b7	0.0031607577
16	0x3cc29818	0.023754165
17	0x3e138723	0.1440702
18	0xbd761a97	-0.06008395
19	0xbd882bfa	-0.06649013
20	0x3ccc69f6	0.02495287
21	0xbda505d4	-0.08057752
22	0x3cbeec77	0.023306115
23	0xbb112fe6	-0.0022153794
24	0xbd8cf941	-0.06883479
25	0x3d4b9826	0.049705647
26	0xbd712c01	-0.058879856
27	0xbdb543a3	-0.08850791
28	0x3ce32361	0.02772683
29	0x3c0f409c	0.008743431
30	0xbde51cc9	-0.11187131
31	0x3a929221	0.0011182466
32	0xbd79c83c	-0.060981974
33	0x3dd34eae	0.10317741
34	0xbc379044	-0.011203829
35	0x3ca77b72	0.020444605
36	0x3d8212c4	0.063512355
37	0xbd13c528	-0.036076695
38	0xbd2f916d	-0.0428633
39	0x3dfab376	0.12241261
40	0x3daa1ea9	0.08306629
41	0x3ddfc300	0.10925865
42	0xbda7e93b	-0.08198782
43	0xbd8d25a5	-0.06891946
44	0xbd82fc69	-0.063958
45	0x3d08a115	0.033356745
46	0x3bee3d0d	0.0072704614
47	0xbd2b70c0	-0.041855574
48	0x3e1c4dc5	0.15264042
49	0x3d26361d	0.04057895
50	0x3db78458	0.089607894
51	0xbd50f5d0	-0.051015675
52	0xbe0eb446	-0.13935956
53	0xbd8e3148	-0.069429934
54	0xbd189675	-0.037252862
55	0x3d8c8abd	0.068624
56	0x3cedf198	0.029045865
57	0x3d37ada3	0.044843327
58	0xbe1416c0	-0.14461803
59	0xbe257ded	-0.16161318
60	0x3c82d883	0.015972381
61	0x3e158d16	0.14604601
62	0xbd01534c	-0.03157358
63	0xbdb0c588	-0.08631426
64	0xbd281b6c	-0.041041777
65	0xbd6fed1e	-0.058575742
66	0x3d5d4bbe	0.05402731
67	0x3db90abc	0.090352505
68	0xbd2afaef	-0.041743215
69	0x3d4a30ef	0.049363073
70	0x3df9a49d	0.121896006
71	0x3da1a61c	0.07893011
72	0xbd3f80ef	-0.04675382
73	0xbe211a30	-0.15732646
74	0xbd80cbe3	-0.06288888
75	0xbbc6c03f	-0.006065398
76	0xbbf55e4f	-0.007488049
77	0xbdb8de4e	-0.09026776
78	0xbd2a0f78	-0.04151866
79	0x3db24a99	0.087056346
80	0x3dc84a56	0.097798035
81	0xbbe77a47	-0.007064137
82	0x3cab0605	0.020876894
83	0x3d8be713	0.06831183
84	0x3d3b661b	0.045751672
85	0xbdb130e7	-0.086519055
86	0x3c295815	0.010335942
87	0x3d91026c	0.0708054
88	0xbda08a40	-0.07838869
89	0xbd4d16e9	-0.050070677
90	0x3d5c3ed3	0.05377085
91	0xbbf84b0d	-0.007577306
92	0xbcbc4667	-0.02298279
93	0xbd4b427f	-0.049623962
94	0x3d90be66	0.070675656
95	0xbe0fba62	-0.14035943
96	0x3cb3f31c	0.02196651
97	0xbdd28b67	-0.10280495
98	0xbdef85a8	-0.11695415
99	0xbe097cf3	-0.1342657
100	0xbe0ecccf	-0.13945316
101	0xbe05f46a	-0.13081518
102	0x3d1288b5	0.035774905
103	0xbd1323e4	-0.0359229
104	0xbd309409	-0.043109927
105	0xbd656b91	-0.056010786
106	0x3d9fb743	0.07798626
107	0x3daa7db7	0.083247595
108	0xbc2c9560	-0.010533661
109	0xbd6fa22c	-0.05850427
110	0x3d838929	0.064226456
111	0xbd89b8e6	-0.0672472
112	0xbd0636de	-0.03276717
113	0x3caed597	0.021342082
114	0xbc224d6d	-0.009906155
115	0x3d36ccb8	0.04462883
116	0x3dbc6c48	0.092003405
117	0xbda08d97	-0.07839506
118	0xbd23fbc3	-0.04003502
119	0x3d75e2f2	0.060030885
120	0xbd5d8c1d	-0.0540887
121	0x3d3c2038	0.045929164
122	0x3bebc72c	0.007195374
123	0x3ce17f39	0.027526485
124	0xbcae3331	-0.021264644
125	0xbddaaa16	-0.106769726
126	0x3d8d37e8	0.06895429
127	0x3dbb493b	0.09144827
128	0x3be47f22	0.006973163
129	0x3bc12ee7	0.005895484
130	0xbabe6c8b	-0.0014528198
131	0x3c16c026	0.009201085
132	0x3c871ae6	0.016492318
133	0x3c0a873c	0.008455094
134	0x3b43661d	0.0029815503
135	0xbcb76fff	-0.022392271
136	0x3beebbc8	0.007285569
137	0x3bbdb113	0.005788931
138	0xbc359f08	-0.011085279
139	0xbbf33800	-0.007422447
140	0xbc956be8	-0.01823993
141	0x3a892aa5	0.001046498
142	0xbbb0c6f7	-0.005394812
143	0xbc925567	-0.017862989
144	0xbc9cb5b5	-0.019129613
145	0xbae0a55e	-0.0017139127
146	0x3cde4a0f	0.027134923
147	0x3c385b14	0.0112521835
148	0xbcb86dbb	-0.022513261
149	0xbce3f7c1	-0.0278281
150	0x3ca3c780	0.01999259
151	0xbc2e66c2	-0.010644617
152	0x37e4d35e	2.7278144e-05
153	0xbc290916	-0.010317108
154	0x3ca77fe9	0.020446735
155	0x3c71bc6e	0.014754398
156	0x3c51dd0f	0.012809052
157	0x3caf7db0	0.021422237
158	0xbb4a70c4	-0.0030889967
159	0xba99587b	-0.0011699343
160	0x3cb52a64	0.02211494
161	0x3b98a93a	0.0046588453
162	0x3b9791b1	0.004625522
163	0x3c19e0f6	0.009392014
164	0xbb58976d	-0.0033049241
165	0xbd1e580b	-0.038658183
166	0x3c2d0428	0.010560073
167	0xbab9090f	-0.001411708
168	0x3a4b824d	0.0007763252
169	0xba568005	-0.00081825285
170	0x3d161b81	0.036647324
171	0xbc042881	-0.0080662975
172	0x3c7ea14f	0.015541389
173	0x3bb3fc4b	0.005492722
174	0xbc8b8ad7	-0.017033977
175	0xbc696333	-0.014244842
176	0xbb7384bb	-0.003715797
177	0xbba44af6	-0.005013819
178	0x3ca329c4	0.019917376
179	0xbc457768	-0.012052394
180	0xbc1a59d2	-0.009420829
181	0xbc584e3e	-0.013202248
182	0x3c0c5030	0.00856404
183	0xbc8f5a35	-0.017499069
184	0x3b943100	0.004522443
185	0x3d06771a	0.032828428
186	0x3c9d5311	0.019204648
187	0x3d337e14	0.04382141
188	0x3bcb959a	0.0062129023
189	0xbc2ee4bd	-0.010674653
190	0x3d09f093	0.033676695
191	0x3cf4a32c	0.029862963
192	0x3dddb1ec	0.108249515
193	0xbd422467	-0.047397997
194	0xbcca9fc4	-0.024734385
195	0x3cc3769b	0.023860266
196	0x3dcb3e71	0.09924019
197	0x3d6ee831	0.058326904
198	0x3d26663f	0.040624853
199	0x3dc756ce	0.097333536
200	0xbc9d895a	-0.019230533
201	0xbdaf4da3	-0.0855973
202	0x3d8e2ec2	0.06942512
203	0xbcd2e9e5	-0.025746295
204	0xbc848c6d	-0.016180241
205	0x3d156768	0.03647557
206	0xbd905ece	-0.070493326
207	0x3c109faf	0.008827134
208	0x3cef822d	0.029236877
209	0x3d675fa0	0.05648768
210	0x3c8218a1	0.015880885
211	0x3d75e78a	0.060035266
212	0x3bacb02d	0.005270025
213	0x3a22b00c	0.00062060426
214	0xbccf70b0	-0.025322288
215	0x3d222e7c	0.039595112
216	0xbd14469b	-0.036200147
217	0xbd465c85	-0.048428077
218	0xbd6ec6cf	-0.058295067
219	0x3dc5a4be	0.09650563
220	0xbc1c80e4	-0.009552214
221	0x3c4f118d	0.012638462
222	0xbb12c0a4	-0.0022392655
223	0xbcea82e9	-0.028626876
224	0x3d88d5f5	0.06681434
225	0xbda018c3	-0.07817223
226	0xbdc9e791	-0.09858621
227	0xbdf3e6e2	-0.11909272
228	0xbdb0ca08	-0.086322844
229	0xbd5cb2c6	-0.05388143
230	0x3cf26d4f	0.029593138
231	0xbd977a6b	-0.07396396
232	0x3d21336a	0.039355673
233	0xbd78c71b	-0.060736757
234	0x3dbd8214	0.09253326
235	0x3e03777c	0.12838548
236	0xbd42668b	-0.047461074
237	0xbe0c1179	-0.1367854
238	0x3d74b09a	0.059738733
239	0xbe045f05	-0.12926872
240	0xbcc68ce5	-0.024237106
241	0xbc5d906e	-0.013523204
242	0xbdcd5981	-0.10026837
243	0xbd941974	-0.07231417
244	0xbd538116	-0.051636778
245	0x3d95953a	0.07303853
246	0x3d8f11b6	0.069858
247	0x3d7e2166	0.06204357
248	0x3e23654e	0.15956613
249	0x3c5a1b5e	0.013312189
250	0xbd70ec7a	-0.05881927
251	0xbd8ff918	-0.07029933
252	0x3c1c94c6	0.009556955
253	0x3d8a39c3	0.067492984
254	0x3c0862ef	0.008324369
255	0xbc54ebc6	-0.012995666

bias f4 [192]
0	0x3e23ac49	0.1598369
1	0xbcbd4c1a	-0.023107577
2	0xbd8a3832	-0.06749
3	0xbcedf0cf	-0.02904549
4	0x3dfcbbbe	0.123404965
5	0x3d230ff1	0.039810125
6	0xbc955808	-0.018230453
7	0xbcac45ed	-0.021029437
8	0xbd025f69	-0.03182927
9	0xbcb3812e	-0.021912184
10	0x3cf280ba	0.029602397
11	0xbd8b8323	-0.06812122
12	0x3dbe9638	0.09305996
13	0xbc704044	-0.01466376
14	0xb94cba8e	-0.00019524453
15	0xbdbcf865	-0.09227065
16	0xbd45ea12	-0.04831893
17	0xbdfb6e94	-0.122769505
18	0xbdb3b457	-0.087746315
19	0xbdd35589	-0.10319049
20	0x3d9f9dcd	0.0779377
21	0x3c941b65	0.018079469
22	0xbd6ed3c7	-0.058307435
23	0xbe049821	-0.12948658
24	0x3dbccb30	0.092184424
25	0x3c499c02	0.012305262
26	0x3e1078fc	0.14108652
27	0xbd8082bc	-0.062749356
28	0x3e113359	0.14179744
29	0xbd2c2bb1	-0.042033855
30	0x3d515c3e	0.05111336
31	0x3d4ab867	0.049492266
32	0xbb5c1690	-0.0033582784
33	0xbd3eeb07	-0.04661086
34	0xbd5817be	-0.052757017
35	0xbd9b6a67	-0.07588654
36	0xbd914a15	-0.07094208
37	0xbd05495d	-0.032540668
38	0x3d514151	0.05108768
39	0x3d03b959	0.032159183
40	0x3c26c244	0.0101781525
41	0x3cc8d122	0.024513785
42	0x3dc63ab5	0.09679166
43	0x3da1f12c	0.07907328
44	0x3b7646eb	0.0037578891
45	0xbd69af16	-0.05705174
46	0x3d8927d0	0.06697047
47	0xbddba0f2	-0.10724057
48	0x3ca9cee4	0.020728536
49	0xbcc007d9	-0.023441242
50	0xbc5584a6	-0.013032114
51	0xbd35ce2c	-0.044386074
52	0xbba823d9	-0.0051312265
53	0x3ae99b99	0.0017822861
54	0xbd11929d	-0.035540212
55	0x3c491f47	0.0122755235
56	0x3d32e483	0.043674957
57	0x3d6eb64f	0.05827933
58	0xbd597eff	-0.05309963
59	0xbdc51eb4	-0.09624997
60	0x3de97364	0.11398962
61	0x3a914749	0.0011083867
62	0x3bec7afd	0.00721681
63	0x3b0dd45d	0.002164147
64	0x3b021225	0.001984724
65	0x3b3fb2b6	0.0029250807
66	0x3b102f40	0.002200082
67	0x3b892729	0.0041855765
68	0x3b96d0db	0.004602534
69	0x3ab182f6	0.0013543058
70	0x3b4887a3	0.0030598424
71	0xbb547d14	-0.0032423185
72	0x3a913a83	0.001108006
73	0x3b59c10e	0.0033226642
74	0xba01d19f	-0.00049521954
75	0xbb894e80	-0.004190266
76	0x3b6975be	0.0035623158
77	0x3ac95486	0.0015360273
78	0xb9f7ed53	-0.00047288332
79	0xbb9c29e3	-0.0047657355
80	0x3b2493a8	0.0025112424
81	0x3b836a35	0.0040104636
82	0xb8227775	-3.8735063e-05
83	0xbb4de027	-0.0031414123
84	0xbba43bdc	-0.0050120186
85	0xbbcca050	-0.0062446967
86	0x3ace3ac2	0.0015734064
87	0x3b9f1c1c	0.004855646
88	0xbbc708da	-0.0060740532
89	0xbb46ac08	-0.003031494
90	0x3a0b429a	0.00053123536
91	0x3b95ee6f	0.0045755426
92	0xbb608b5b	-0.003426275
93	0x3b801a75	0.003909404
94	0x3a0330d8	0.00050045317
95	0xba0f5f3d	-0.00054692087
96	0x3ae97e41	0.0017814116
97	0xba016b48	-0.00049369456
98	0x3b2414da	0.0025036843
99	0xba08265c	-0.0005193704
100	0x3b0e765b	0.0021738026
101	0xba9d5629	-0.0012003827
102	0x3a86fd01	0.001029879
103	0xba4d1cad	-0.00078244024
104	0xbaee98f9	-0.0018203548
105	0xbb9a3e84	-0.0047071595
106	0xbb1ae917	-0.0023637468
107	0xbb4dd894	-0.0031409608
108	0x3ad6ad20	0.00163785
109	0x3b4ce3ca	0.0031263703
110	0x3b2ad70c	0.002606812
111	0x3ae7d667	0.0017687798
112	0xbb1bc2da	-0.0023767264
113	0xbbdf83e1	-0.006821141
114	0x3b00c49b	0.0019648436
115	0x39e42aef	0.00043519537
116	0x3aff5411	0.001948001
117	0x3b157696	0.0022806278
118	0x3b7372ac	0.0037147207
119	0xbae010f3	-0.0017094895
120	0x3af4598a	0.0018642407
121	0xbbeff8b1	-0.0073233475
122	0x3b762cb5	0.0037563269
123	0x3b815190	0.0039464906
124	0x3b99e9e6	0.0046970723
125	0xbb9422bb	-0.0045207418
126	0xbb230a64	-0.002487802
127	0x3a6b318a	0.00089719205
128	0x3c852b8e	0.01625612
129	0x3bf54c32	0.00748589
130	0xbbb18a57	-0.0054181027
131	0x3bf88ed7	0.007585387
132	0xbb7c44ff	-0.0038493273
133	0x3b316f80	0.0027074516
134	0x3c140950	0.009035423
135	0x3bd29208	0.0064260997
136	0x3b0dd088	0.0021639187
137	0xba22801c	-0.00061988994
138	0xbc962075	-0.018326024
139	0x3b9e5671	0.004832082
140	0x3a57ff8b	0.0008239678
141	0x3b270ed6	0.002549102
142	0x3cd91503	0.026499277
143	0xba92bb99	-0.0011194824
144	0x3b811bba	0.003940073
145	0x3abba6d4	0.0014316686
146	0xbc4f359b	-0.012647058
147	0xbb0eb295	-0.0021773924
148	0x3c832c76	0.016012412
149	0xbc15a135	-0.009132673
150	0xb99e39fb	-0.00030179307
151	0x3b952676	0.004551704
152	0x3b59958c	0.003320071
153	0xbc275bce	-0.010214759
154	0xbc5d0eaf	-0.01349227
155	0x3c0a6abb	0.008448298
156	0x3c788320	0.015167981
157	0xbb65f9bd	-0.0035091483
158	0x3c41fe0b	0.011840354
159	0x3c9a05e7	0.018801643
160	0x3bb3d7b2	0.0054883594
161	0xb93479d4	-0.00017211522
162	0xbb56b600	-0.003276229
163	0x3c064ed6	0.008197507
164	0x3ba1e0ed	0.0049401433
165	0xbc1c440b	-0.009537707
166	0xbb14814e	-0.002266008
167	0x3c19dad9	0.009390556
168	0x3c898ed0	0.016791731
169	0x3cd73c5a	0.026273895
170	0xbcc9b43a	-0.024622072
171	0xbafb46af	-0.0019170846
172	0xbd01e1a3	-0.031709325
173	0x3c6d4dfc	0.014483925
174	0x3c3b5b7f	0.011435389
175	0xbcdbb9a0	-0.026821911
176	0x3a192331	0.0005841731
177	0xb9963113	-0.00028646793
178	0x3c04c8c5	0.008104508
179	0x3c71ce80	0.014758706
180	0x3c6f2fbd	0.014598784
181	0x3c7442db	0.014908518
182	0x3c3a89ca	0.011385391
183	0xbb1511ba	-0.0022746162
184	0xbc79e2fd	-0.015251872
185	0xbbb7796b	-0.005599191
186	0xbb97265e	-0.004612728
187	0x39844f2b	0.00025235987
188	0xbb6ff17b	-0.003661244
189	0x3c34a3c5	0.011025374
190	0xbc347c7a	-0.011016006
191	0xbb5fe7c0	-0.0034165233

weight f4 [64, 64]
0	0x3cadc93f	0.021214126
1	0xbc1f953a	-0.009740168
2	0xbb1000e8	-0.0021973196
3	0x3ae3d3e2	0.0017381872
4	0x3c1bb7a6	0.009504234
5	0xbc88c403	-0.016695028
6	0x3cf0ea10	0.029408485
7	0xbba26827	-0.0049562636
8	0x34c76545	3.7140322e-07
9	0xbc1a1344	-0.009404007
10	0xbab8fc57	-0.0014113289
11	0x3c7fe123	0.015617642
12	0xbd0d499c	-0.034494027
13	0xb996ecc4	-0.00028786634
14	0xbb878950	-0.004136242
15	0xbbe3600f	-0.0069389413
16	0x3b904a30	0.004403375
17	0xbd0a915f	-0.033830043
18	0xbc97be40	-0.018523335
19	0xbb9a880d	-0.0047159255
20	0xbb8e1c1f	-0.0043368484
21	0x3c9e6a13	0.01933769
22	0x3b6ea4bd	0.003641411
23	0xbc22adc1	-0.0099291215
24	0x3b7058c4	0.0036674002
25	0xbbd90dad	-0.0066239447
26	0x3cd88ba0	0.026433766
27	0xbb35134b	-0.0027629908
28	0x3a01e0be	0.00049544487
29	0xbb927bac	-0.0044703092
30	0xbc6c5576	-0.014424672
31	0xbb1640b3	-0.0022926747
32	0x3c1783a5	0.009247695
33	0x3bcba4a4	0.006214695
34	0xbc15591c	-0.009115484
35	0x3bc7d87d	0.0060988055
36	0xbc036b36	-0.008021167
37	0x3b1bcbf2	0.0023772684
38	0x3bbc2d5e	0.005742713
39	0x3b4baaea	0.0031077215
40	0xb9a2e366	-0.00031068473
41	0xbc9e0bc4	-0.01929272
42	0xbc8ea49b	-0.017412474
43	0xbc47810a	-0.012176761
44	0x3b63a67e	0.0034736688
45	0x3b5634fa	0.0032685385
46	0xbb8cf4a4	-0.0043016244
47	0x3ba6c328	0.0050891824
48	0xbb85091a	-0.004059923
49	0xba2e1386	-0.00066404825
50	0x3c6f86a8	0.014619507
51	0x3c6ef0d6	0.014583787
52	0x3bf09c90	0.0073428825
53	0x3cc59726	0.024119925
54	0x3bcb97c7	0.0062131616
55	0x3b41b3fb	0.002955674
56	0xbbb1a698	-0.005421471
57	0x3c1ca651	0.009561137
58	0x3b295fe2	0.0025844504
59	0xbbee4ac2	-0.0072720954
60	0xbbf25a73	-0.0073960363
61	0x3a01e315	0.00049547973
62	0x3b994151	0.004676976
63	0x3bb78955	0.005601088
64	0xbcf60164	-0.03002996
65	0x3c2cd9b9	0.010549956
66	0x3cab0414	0.020875968
67	0xbc2881ba	-0.0102848355
68	0xbb9803bd	-0.0046391175
69	0x3c43f129	0.0119593525
70	0xbc5e38e4	-0.0135633685
71	0x3b41ea64	0.002958917
72	0x3b33796e	0.002738561
73	0x3c1fdd6c	0.009757381
74	0xbc3450c3	-0.011005583
75	0xb9a483e2	-0.00031378778
76	0x3cdf1332	0.027230833
77	0xbc6e2cdf	-0.014537065
78	0xbb2a98b7	-0.0026030967
79	0xbcaf41b5	-0.021393636
80	0x3c039f68	0.008033611
81	0x3b7fdbb0	0.0039040856
82	0xbc0023ed	-0.007821065
83	0x3c30b5f4	0.0107855685
84	0x3c8ba8c7	0.017048253
85	0x3c1cde93	0.00957455
86	0xbc7fe1b8	-0.01561778
87	0xbd1d877c	-0.038459286
88	0xbcd4b8ab	-0.025966963
89	0xbc12c5de	-0.008958308
90	0xbb8ddf2d	-0.004329583
91	0xbc4cdfb4	-0.012504507
92	0x3bfe7869	0.007765819
93	0x3b9d95b1	0.0048091044
94	0x3c59a537	0.013284019
95	0xbb151701	-0.0022749307
96	0x3c3f9e2a	0.011695424
97	0xbb3ed3e8	-0.0029118005
98	0x3a649af9	0.00087206025
99	0x3c4ca156	0.012489637
100	0x3c416ee9	0.011806228
101	0x3ca83eef	0.020537822
102	0x3c92bd78	0.017912611
103	0x3c8cd74c	0.017192505
104	0xbc0d1379	-0.0086106
105	0x3b78e44b	0.003797787
106	0xbb026477	-0.0019896307
107	0xbb414188	-0.0029488523
108	0x3a70e615	0.00091895583
109	0xbbc70a57	-0.0060742307
110	0xbbd2e493	-0.0064359396
111	0xbc64db71	-0.0139683345
112	0xbc231f2c	-0.009956162
113	0xba4e714b	-0.00078751583
114	0x3a0f39d7	0.0005463636
115	0xbc6214eb	-0.013798933
116	0x3b5626e3	0.0032676987
117	0x3ada8c83	0.0016673956
118	0x3c7fad54	0.0156052895
119	0xbba4ef71	-0.0050334265
120	0x3b41a077	0.0029545107
121	0xbc5ce9fa	-0.013483519
122	0x3bd4bfc0	0.006492585
123	0xbc1f10d2	-0.0097086
124	0x3cdbb6ae	0.026820507
125	0x3c15ed32	0.00915079
126	0x3b6e5e3a	0.0036372081
127	0x3bbaf943	0.005705984
128	0x39f1daa4	0.00046130002
129	0x3c34d3fb	0.011036868
130	0x3b8bad40	0.0042625964
131	0xbba4a50b	-0.0050245575
132	0xbbb73eb4	-0.0055921916
133	0x3c2a2f09	0.010387191
134	0xbcbf879f	-0.023380099
135	0xbb1849ac	-0.0023237271
136	0xbb3f2e9a	-0.0029172064
137	0xbc2194ec	-0.009862166
138	0xbc0cd869	-0.008596518
139	0xbc92b175	-0.017906884
140	0x3bd366c4	0.0064514596
141	0x3ccfef6b	0.025382718
142	0xbc04fea7	-0.0081173545
143	0xbcc8464f	-0.024447588
144	0xbbeccb6e	-0.007226399
145	0x3cac823d	0.021058196
146	0xbc8ab02a	-0.016929705
147	0x3adfd062	0.0017075653
148	0xbcbd7af8	-0.023129925
149	0xbba4ffe7	-0.0050353887
150	0x3c674784	0.014116172
151	0xbaf1e26d	-0.0018454321
152	0x3c86fd8a	0.016478319
153	0x3af39ba1	0.001858581
154	0xbcd1c408	-0.02560617
155	0xbb25fa52	-0.0025326204
156	0x3bd26e38	0.0064218305
157	0x3c90b3eb	0.017663917
158	0xbbb7b08d	-0.0056057633
159	0xba8901be	-0.001045279
160	0x3ccc4532	0.024935339
161	0x3c84ca71	0.016209813
162	0xbb86e48c	-0.0041166004
163	0x3cb21628	0.02173908
164	0xbad8e71a	-0.0016548366
165	0x3c45e0ad	0.012077493
166	0xbc4ef863	-0.012632462
167	0xbb8a9553	-0.0042292266
168	0xbb44c2cd	-0.0030023337
169	0xbc5b2647	-0.013375825
170	0xbbb2699d	-0.005444719
171	0x3c4513bd	0.012028632
172	0xbb3a94f4	-0.002847013
173	0xbb92aff1	-0.0044765403
174	0x3c2410a6	0.010013735
175	0xbbac678c	-0.005261367
176	0x3ae7f85d	0.0017697919
177	0x3bbd2c06	0.0057730703
178	0xba1a6c16	-0.000589074
179	0x3c529d28	0.012854852
180	0x3c4dbed2	0.012557702
181	0xbc0722f6	-0.008248081
182	0x3c17aa98	0.009256981
183	0xbc947ff0	-0.018127412
184	0xbc05d146	-0.00816757
185	0xbc8e4a27	-0.017369343
186	0xbbf426cc	-0.007450914
187	0xbc14624a	-0.009056637
188	0xba275d49	-0.0006384445
189	0xbbaaf63c	-0.0052173417
190	0xbc21b255	-0.009869178
191	0xbc82d306	-0.015969764
192	0xba9d9f43	-0.0012025613
193	0xbc9cd5f3	-0.019144988
194	0x3c1d701f	0.009609251
195	0x3ba3fa2e	0.005004189
196	0xbc71de54	-0.01476248
197	0x38a069d0	7.649104e-05
198	0x3c5ee59f	0.013604551
199	0x3b56b12a	0.0032759407
200	0x3b2170e2	0.0024633934
201	0x385d4c0a	5.2761323e-05
202	0x3ca82e13	0.020529782
203	0x3b04cdf9	0.002026437
204	0xbc7e255b	-0.015511836
205	0xbb516a08	-0.0031954069
206	0xbbd9e699	-0.006649804
207	0x3b342edc	0.002749375
208	0xba973dc3	-0.0011538792
209	0x3cc7d00f	0.024391202
210	0x3c524bf1	0.012835489
211	0x3c439897	0.011938236
212	0xbc652b79	-0.0139874155
213	0xbb701198	-0.003663158
214	0x3b25e9d3	0.0025316372
215	0x3c84c584	0.016207464
216	0x3c44bd84	0.012008075
217	0xbc03c08a	-0.00804151
218	0xbbcd02cd	-0.0062564374
219	0x3c8ea6ca	0.017413516
220	0x3c0a40d1	0.008438305
221	0x3bfc6bda	0.0077032866
222	0xbc8a151a	-0.016855765
223	0xbb3a3f8b	-0.0028419222
224	0xbc690f7a	-0.014224881
225	0x3b6543a1	0.0034982937
226	0xbbc2286f	-0.00592523
227	0x3b36b50f	0.0027878915
228	0xbb309f42	-0.0026950394
229	0xb9dea29f	-0.00042464302
230	0xbbc4052d	-0.0059820623
231	0xbb25d18a	-0.0025301897
232	0xbc5ed968	-0.013601638
233	0xbc540e49	-0.012942859
234	0x3c9bc82c	0.019016348
235	0xbac8dc09	-0.0015324365
236	0xbb998bdc	-0.004685862
237	0x3b9676b6	0.004591788
238	0xbc1b186f	-0.009466275
239	0xbc878c56	-0.01654641
240	0xbc98fe52	-0.018675957
241	0x3c270532	0.01019411
242	0x3c0ef45d	0.008725253
243	0xbcb89301	-0.022531034
244	0x3b2ca111	0.002634112
245	0xbc80c3d7	-0.015718384
246	0x3c0d7989	0.008634933
247	0x3bf24ccd	0.0073944093
248	0xbcb4c0cc	-0.022064589
249	0xbb554e2c	-0.0032547815
250	0x3ba59aa8	0.005053837
251	0xbb7d44c1	-0.0038645717
252	0x3c5f23ad	0.013619346
253	0xbc04f447	-0.008114881
254	0x3c2c7799	0.010526561
255	0x3bc17e2e	0.0059049344

bias f4 [64]
0	0xbb145b19	-0.0022637306
1	0x3bd68dae	0.0065476513
2	0x3b0dbf15	0.0021628786
3	0x3b059f26	0.002038905
4	0xbbe35a12	-0.0069382275
5	0x3b44e780	0.0030045211
6	0x3b1bd187	0.002377601
7	0xbad5a56b	-0.0016299909
8	0xbb2f83f0	-0.0026781522
9	0x3b808d64	0.003923105
10	0xbac06bd5	-0.0014680574
11	0xbb39509b	-0.0028276804
12	0x3b4a1932	0.0030837771
13	0xbc087639	-0.008328968
14	0xbb1d05e0	-0.00239598
15	0xbb59797e	-0.0033183987
16	0xba5c9354	-0.00084142876
17	0x3b40e32f	0.0029432287
18	0x3b03c503	0.0020106442
19	0x3ba40242	0.005005152
20	0x3b922095	0.0044594505
21	0x3bb2675c	0.0054444503
22	0x3c14954b	0.009068797
23	0xbc11eac1	-0.008906067
24	0xb9e2ca13	-0.00043256636
25	0xbb643f57	-0.0034827793
26	0xba491674	-0.0007670887
27	0xbbf513ca	-0.0074791657
28	0xbb869138	-0.004106667
29	0xbaf72d30	-0.0018858071
30	0x3b8e5725	0.0043438845
31	0xbaacb2a3	-0.0013175796
32	0xbbc50c55	-0.006013433
33	0x3b7ac58f	0.0038264727
34	0xbb577125	-0.0032873836
35	0x37d09340	2.48641e-05
36	0x3bda0928	0.0066539235
37	0x38dbbdb5	0.000104780695
38	0x39da2356	0.00041606528
39	0x3ab9c577	0.0014173229
40	0x3aca637b	0.0015441024
41	0xbb8755f7	-0.004130121
42	0xbbc91b0b	-0.006137257
43	0x3b587da4	0.0033033872
44	0x3b8788b4	0.0041361693
45	0xba95b8a5	-0.0011422826
46	0x3bdbd4e9	0.0067087305
47	0x3b3d8f4c	0.0028924523
48	0xbaf7c673	-0.0018903747
49	0xbac12932	-0.0014737009
50	0x3a7531bf	0.0009353421
51	0xba874279	-0.0010319493
52	0x3ba69585	0.005083742
53	0xb9bef891	-0.0003642482
54	0xb9558d4c	-0.000203659
55	0xbb965f9f	-0.0045890356
56	0xb99bee36	-0.00029741385
57	0xbc197ed2	-0.009368615
58	0x3ab22329	0.0013590801
59	0x374d1a8c	1.2225133e-05
60	0xbbc7714b	-0.0060865036
61	0x3b02de8d	0.0019969076
62	0x37ea2d53	2.791608e-05
63	0x3bd2aa7a	0.006429014

weight f4 [64]
0	0x3f7646f1	0.96202
1	0x3f7f1021	0.99633986
2	0x3f77c7c3	0.9678919
3	0x3f7ea5c5	0.99471694
4	0x3f7b8803	0.9825441
5	0x3f8108a3	1.0080761
6	0x3f7ba31d	0.98295766
7	0x3f7c1445	0.9846843
8	0x3f78b9a1	0.9715825
9	0x3f7c48f8	0.9854884
10	0x3f819bf8	1.0125723
11	0x3f7bf73f	0.9842414
12	0x3f8bbe05	1.0917364
13	0x3f7b86d9	0.98252636
14	0x3f7d5829	0.98962647
15	0x3f7cc33b	0.987354
16	0x3f7c08d1	0.9845095
17	0x3f775490	0.9661341
18	0x3f78ed2c	0.97236896
19	0x3f8178b3	1.011496
20	0x3f80bbce	1.0057313
21	0x3f818abe	1.0120466
22	0x3f7d4cf9	0.98945576
23	0x3f85b76c	1.0446601
24	0x3f7fc1cb	0.9990508
25	0x3f7c06fa	0.98448145
26	0x3f7d44e3	0.9893324
27	0x3f7a2836	0.9771761
28	0x3f76c6cd	0.96397096
29	0x3f8695dc	1.0514483
30	0x3f7c7827	0.9862084
31	0x3f840896	1.031512
32	0x3f799b3b	0.9750249
33	0x3f7a70bc	0.9782827
34	0x3f8301f9	1.0234977
35	0x3f782f01	0.9694672
36	0x3f7b4a2c	0.9816005
37	0x3f77ea4e	0.96841896
38	0x3f7a7046	0.97827566
39	0x3f794aeb	0.9737994
40	0x3f80253a	1.0011361
41	0x3f811b7b	1.0086511
42	0x3f82d955	1.0222574
43	0x3f7f40de	0.99708354
44	0x3f7ddec5	0.99168044
45	0x3f7da83c	0.9908483
46	0x3f825a38	1.0183783
47	0x3f77266e	0.96543014
48	0x3f7fd91d	0.99940664
49	0x3f81034d	1.0079132
50	0x3f815b76	1.0106037
51	0x3f86f378	1.0543051
52	0x3f82b59a	1.021167
53	0x3f84c602	1.0372927
54	0x3f7c4d49	0.9855543
55	0x3f75e946	0.9605907
56	0x3f7cc0f7	0.9873194
57	0x3f7d441d	0.9893206
58	0x3f7e5df0	0.9936209
59	0x3f81c790	1.0139027
60	0x3f76a181	0.96340185
61	0x3f80cb61	1.0062066
62	0x3f75dc51	0.960393
63	0x3f779e20	0.96725655

bias f4 [64]
0	0x3c395a68	0.011313058
1	0xbc4cf9be	-0.012510715
2	0x3c6528c0	0.013986766
3	0x3c1f51bb	0.009724076
4	0x3b0a05d1	0.0021060596
5	0xbb86118a	-0.0040914463
6	0x3b4d0881	0.0031285586
7	0x3cc665c5	0.02421845
8	0x3bb00581	0.00537175
9	0xbc7cb90c	-0.015424978
10	0xbd01ae46	-0.03166034
11	0xbb9d4388	-0.00479931
12	0x3d73ed3a	0.05955241
13	0x3a4d7b7d	0.00078385306
14	0xbd1d5fae	-0.038421325
15	0xbc98f142	-0.018669728
16	0x3c893519	0.016748952
17	0x3d38575b	0.045005184
18	0xbc43722e	-0.011929078
19	0x3d303e02	0.043027885
20	0x3c91c953	0.017796194
21	0xbd704cc2	-0.058666952
22	0x3c3d6c70	0.011561498
23	0xbcf491d3	-0.02985469
24	0x3ca736c5	0.020411858
25	0xbcf6111e	-0.030037459
26	0xbcbc9bfb	-0.023023596
27	0x3c7012ea	0.014652947
28	0xbc2139e7	-0.009840465
29	0x3c57c8d1	0.013170437
30	0xbbefe482	-0.0073209414
31	0xbd049b60	-0.03237474
32	0xbc9c2c12	-0.019063983
33	0x3d1c76d0	0.038199246
34	0xbc03e867	-0.0080510145
35	0x3c0ebd95	0.008712192
36	0x3cb6c1f2	0.022309277
37	0x3c2e78cb	0.0106489165
38	0x3ca9a08e	0.020706441
39	0xbc5db4a9	-0.013531842
40	0xbc37b687	-0.0112129515
41	0x3c923325	0.017846653
42	0x3c45d7be	0.012075363
43	0xbc4280d8	-0.011871539
44	0x3c2f4216	0.010696908
45	0xbbb2d118	-0.005457055
46	0xbc1ab183	-0.009441736
47	0x3c8edfe1	0.017440738
48	0xbc16eb04	-0.0092113055
49	0x3c1a0348	0.009400196
50	0xbb8f2adb	-0.0043691224
51	0xbc304393	-0.010758298
52	0x3c842b4d	0.016133929
53	0x3cdf68e9	0.027271705
54	0xbb125a67	-0.0022331716
55	0x3bd67877	0.0065451222
56	0x3b8aafa5	0.0042323642
57	0x3b193808	0.0023379344
58	0x3c9975e5	0.018732974
59	0x3b91cfa1	0.0044498
60	0xbced1ade	-0.028943475
61	0x3c867fcc	0.01641836
62	0xba27976b	-0.00063931075
63	0x3b85b2db	0.004080159

weight f4 [64, 256]
0	0xbce56b69	-0.028005319
1	0x3cc74be4	0.02432818
2	0x3c57bbd3	0.013167339
3	0xbca5beff	-0.020232676
4	0x3aa219e2	0.0012367333
5	0xbd43f4ce	-0.047840886
6	0xbc97424e	-0.018464234
7	0x3b9591f8	0.00456452
8	0x3c575e9b	0.013145114
9	0x3a8bbb9a	0.0010660768
10	0xbc026c91	-0.007960455
11	0xbc8be098	-0.017074868
12	0x3cd66ab1	0.026173921
13	0xbb0d70b2	-0.0021582064
14	0xbc2fb1db	-0.010723556
15	0xbd138a32	-0.036020465
16	0x3c5f75fa	0.013638968
17	0x3bea0fef	0.0071430127
18	0x3c557c02	0.013030054
19	0x3b38b9f5	0.002818701
20	0x3aee1ff7	0.0018167485
21	0xbc0e1e6b	-0.008674244
22	0x3c84b668	0.01620026
23	0xbb92bcb6	-0.0044780625
24	0x3c84e440	0.01622212
25	0xbc8e03f3	-0.017335868
26	0xbc529daa	-0.012854973
27	0xbc37e022	-0.011222871
28	0x3bfa28d3	0.007634261
29	0x3b42903e	0.0029688026
30	0x3d174b5c	0.036937103
31	0x3c6428ce	0.013925744
32	0x3ce8b8de	0.028408464
33	0x3bc9a473	0.006153637
34	0xbd209694	-0.039206102
35	0xbc48d09a	-0.012256766
36	0x3cb5196c	0.022106849
37	0xbab01492	-0.0013433865
38	0x3bf94990	0.0076076463
39	0x3d148d90	0.036267817
40	0x3ae23aa2	0.0017259906
41	0xbd1b8791	-0.037971083
42	0x3b8c41fb	0.0042803264
43	0x3c9b6104	0.01896716
44	0x3c31eada	0.010859216
45	0xbc526d3d	-0.012843427
46	0xbc8efa8e	-0.017453458
47	0x3c22e24a	0.009941647
48	0x3c47f103	0.012203458
49	0xbd6aca4e	-0.05732184
50	0x3b95fe7a	0.004577455
51	0xbc8b6e46	-0.017020356
52	0x3b318ced	0.0027092055
53	0xbce6a602	-0.02815533
54	0xbcb87800	-0.022518158
55	0x3c2ff18c	0.010738742
56	0xbc915167	-0.017739011
57	0xba0bcb25	-0.00053327
58	0xbcc58729	-0.024112301
59	0x3c52cfb7	0.012866906
60	0xbd12e731	-0.035865013
61	0x3c5e4d38	0.013568215
62	0xbd2c8d59	-0.042126987
63	0xbb3bc1d5	-0.0028649468
64	0x3c46e1da	0.012138808
65	0xbd23c981	-0.03998709
66	0x3c815554	0.015787758
67	0xbc309fba	-0.010780269
68	0x3d055553	0.032552075
69	0x3d02fe2e	0.031980686
70	0x3c88a658	0.016680881
71	0xbc1ad6fd	-0.009450671
72	0x3d3b6699	0.04575214
73	0xbba6a59d	-0.0050856606
74	0x3bc606a9	0.0060432744
75	0xbc897509	-0.01677944
76	0xba888390	-0.0010415185
77	0xbc31b085	-0.010845308
78	0x3d1d5656	0.038412414
79	0x3c3f59ce	0.011679126
80	0xbc4c97b7	-0.0124873435
81	0x3d4a9587	0.049459007
82	0x3c9fd0a7	0.019508673
83	0xbc93b49e	-0.01803046
84	0xbc3ba445	-0.011452739
85	0xbc7e90b1	-0.015537427
86	0x3c327073	0.010891068
87	0x3ba2c83c	0.0049677175
88	0x3c1f5820	0.0097256005
89	0xbc8d5030	-0.01725015
90	0x3d07e852	0.033180542
91	0x3ccdd1cf	0.025124459
92	0x3b603809	0.0034213087
93	0xbc75fc02	-0.015013697
94	0xbbb2ab9a	-0.0054525854
95	0xbbf02f15	-0.0073298314
96	0xbcd194cd	-0.025583649
97	0x3ceb0a3e	0.028691407
98	0x3c375848	0.0111904815
99	0xbc0cedee	-0.008601649
100	0x3d23046e	0.039799146
101	0xbc86744c	-0.016412877
102	0x3d0a2c4f	0.033733662
103	0xbd01b545	-0.031667013
104	0xbb9be4c6	-0.0047574965
105	0xbc368308	-0.011139639
106	0xbc0266cc	-0.007959079
107	0x3c61ba8b	0.0137773855
108	0xbc747b6f	-0.014922007
109	0xbb7e8e6d	-0.0038842217
110	0x3b66e7e8	0.0035233442
111	0xbc5c32ad	-0.013439816
112	0x3c490182	0.012268426
113	0xbbaa49d4	-0.0051967893
114	0xbd4214cd	-0.04738312
115	0xbce6a7d9	-0.028156208
116	0xbbe02cda	-0.006841284
117	0xbc15977b	-0.009130354
118	0xbc93bd9e	-0.018034752
119	0x3d020908	0.031746894
120	0x3cd0dc8c	0.02549579
121	0xbcf9f621	-0.030512871
122	0x3c57127c	0.013126966
123	0xbc71be55	-0.014754851
124	0xbcda06fc	-0.026614659
125	0x3c491bbe	0.012274681
126	0x3cb34e57	0.021887941
127	0x3bd2bdb0	0.006431304
128	0xbcecd8a1	-0.02891189
129	0x3b416910	0.0029512085
130	0xbc3e85da	-0.011628592
131	0xbad3319d	-0.0016112808
132	0x3d0a45da	0.033758022
133	0x3b13c341	0.00225468
134	0xbc9c8c77	-0.019109948
135	0x3c27b05d	0.010234919
136	0x3b628256	0.003456255
137	0x3b28e44d	0.0025770843
138	0xbceea1cc	-0.029129885
139	0xbc8c4370	-0.017122
140	0xbc42792a	-0.011869708
141	0x3c91dbd0	0.01780501
142	0xbbd59b25	-0.006518739
143	0xbb8eec1c	-0.0043616425
144	0xbce42b43	-0.02785266
145	0x3c902b4d	0.017598772
146	0x3c82af70	0.015952796
147	0xbbd4e49c	-0.006496979
148	0x3cb3f3eb	0.021966895
149	0xbbf1150b	-0.007357245
150	0xbc94ead0	-0.018178374
151	0x3d2bda03	0.04195596
152	0x3a102528	0.0005498701
153	0xbb34df27	-0.002759883
154	0x3ca9a2bd	0.020707482
155	0x3c37d331	0.011219786
156	0x39796da5	0.00023787336
157	0x3c8496b0	0.016185135
158	0x3c0f68e6	0.008753037
159	0x3c897606	0.01677991
160	0x3c1e19c9	0.009649702
161	0xbcb4c47d	-0.02206635
162	0xbd14dd22	-0.0363437
163	0xbb8eaa88	-0.004353825
164	0xbca36399	-0.019944953
165	0x3cc8c37c	0.024507277
166	0x3c38bdfb	0.011275764
167	0x3d08deac	0.03341548
168	0x3c67b782	0.014142873
169	0x3d1a4697	0.037664976
170	0xbc42ab9a	-0.011881733
171	0xbbd02b96	-0.006352852
172	0xbc89521a	-0.016762782
173	0xbc6163c3	-0.013756695
174	0x3d5936df	0.053030845
175	0xbc066bb4	-0.008204389
176	0x3d60ba6e	0.054865293
177	0x3c8d8e1c	0.017279677
178	0x3b8eec72	0.0043616826
179	0xbb80b4e6	-0.003927815
180	0x3cbdc229	0.023163872
181	0xbbdc6b78	-0.0067266785
182	0x3c81ce26	0.01584537
183	0x3b54193a	0.003236367
184	0x3c3771fb	0.011196609
185	0x3b99ef7e	0.004697739
186	0x3cce4a92	0.025182042
187	0xbb3d9229	-0.002892623
188	0x3cc73025	0.02431495
189	0x3c90d9e2	0.01768202
190	0x3994c5c7	0.00028376115
191	0xbb9c66cf	-0.004772998
192	0x3b5b11d4	0.0033427374
193	0x3c2a7f10	0.010406271
194	0xbc020241	-0.007935108
195	0xbcbc69a8	-0.0229996
196	0x3d5a1db8	0.053251
197	0xbc764c8d	-0.0150329
198	0xbc820fdc	-0.015876703
199	0xbd35a523	-0.04434694
200	0x3d396261	0.045259837
201	0x3b711cbb	0.0036790806
202	0xbd2f4f7e	-0.04280042
203	0xbbde8295	-0.006790469
204	0x3cbe0ee4	0.02320046
205	0x3c98c7a6	0.018649887
206	0xbcd5f9ec	-0.026120149
207	0x3c8950b6	0.016762119
208	0xbd005c33	-0.031337928
209	0x3c8d5c23	0.017255848
210	0x3c6523bd	0.013985571
211	0xbbf067e9	-0.007336606
212	0xbc24bbc1	-0.01005453
213	0xbc52e9c6	-0.012873119
214	0x3a0e11f4	0.00054195453
215	0xbcc9846b	-0.024599275
216	0xbce0d770	-0.027446479
217	0x3bfe7ce5	0.0077663534
218	0xbcaaf288	-0.020867601
219	0xbbfba97e	-0.007680117
220	0xbccd340b	-0.02504923
221	0x3cc5b0be	0.024132129
222	0xbc7ab586	-0.015302068
223	0x3ab32f3b	0.0013670692
224	0xbae06c8c	-0.0017122193
225	0x3c0ed7b0	0.008718416
226	0xbbf5d41e	-0.007502093
227	0x3cb5a7bc	0.022174709
228	0x3c330a67	0.010927773
229	0xbd0dff1f	-0.03466713
230	0xbd298e8a	-0.0413957
231	0x3b418c18	0.0029532965
232	0x3cb8c807	0.022556318
233	0x3d042a49	0.03226689
234	0xbd44aba5	-0.048015255
235	0x3c877314	0.016534366
236	0xbb856f11	-0.004072078
237	0xbb55a19d	-0.003259755
238	0xbc6b0251	-0.014343814
239	0xbc9530d7	-0.018211765
240	0xbcbae5d3	-0.022814667
241	0xbb0e88ae	-0.0021748948
242	0x3c8f3106	0.01747943
243	0x3c54577f	0.012960314
244	0x3cb5e5ad	0.022204245
245	0x3c5d5420	0.0135088265
246	0x3c01ed19	0.007930064
247	0xbbda4c70	-0.006661944
248	0xbb5f4579	-0.0034068509
249	0x3c8c37c2	0.017116431
250	0x3c9ce8fa	0.01915406
251	0x3c2ccc08	0.010546692
252	0xbc2df6f9	-0.010617965
253	0xbc7de535	-0.015496542
254	0xbc9ae2be	-0.018906947
255	0xbd5e5027	-0.054275658
